MINST/W2.npy (npy, 62848 bytes, 1 tensors)

array f8 [10, 784]
00000000: 3a58 2a69 028a cfbf bbd8 7b4b 2dc4 cabf
00000010: 5442 f6b0 5859 bcbf 7415 6c99 6f8f e1bf
00000020: 04c4 4b32 f61e a3bf a993 542f 52bd f53f
00000030: 409a 7ce6 a18b d03f f44c 99b4 71bf fdbf
00000040: 10cf 5696 dd2a d13f f238 d46d b1d3 d5bf
00000050: 23ce 7445 8c77 c53f 6b74 ec61 805b d1bf
00000060: 610c 54eb de1f c63f c92d 2866 a456 09c0
00000070: 7fa2 3eac 8127 fbbf c79d b329 f342 f0bf
00000080: 7417 30f2 2224 02c0 61a5 5706 cd21 d63f
00000090: 90a8 88cc 0448 f1bf f68e 962f b9fe d63f
000000a0: 56d5 b4ee 6704 a03f 665d dd15 fa01 e5bf
000000b0: 0746 dcd5 000e c03f 0a21 02d7 7e6e babf
000000c0: 8a39 33f8 ea5e d0bf 6453 090d 7899 bcbf
000000d0: 7e89 8088 f2d9 c6bf 2121 fad2 bde6 953f
000000e0: c509 d151 1fe5 f73f e94c ab40 de41 c93f
000000f0: b8ee 2368 09fe e63f 50cb 6c10 a030 bb3f
00000100: 5bf6 7b27 eedf e6bf 9a0a f09d 9e5a e3bf
00000110: d073 80fe 93a0 f13f 1c5e d6a0 06f5 c7bf
00000120: dd06 5783 fc0f 983f 2e80 bac4 511d bc3f
00000130: ae40 472b 813c b23f 66a7 8959 a958 d03f
00000140: 88c4 4610 65e8 ca3f ae1d 20da 21a7 c9bf
00000150: 609a 5cfa 98c8 f6bf 6367 441e d56a cdbf
00000160: 6a0c 900f e2e8 c9bf 31c1 e3b4 a64f e6bf
00000170: 66a1 b56d 7b2c 0540 6474 1da4 dfed babf
00000180: 1584 b2af 777c 9d3f 1bf9 dd49 323e bfbf
00000190: cf20 e2fa 067b d0bf dc22 8e09 cfd7 cb3f
000001a0: e486 2c34 ff2c db3f f83d 3484 0582 abbf
000001b0: 8c27 ca0d 5bab fe3f 354a ced0 967b a3bf
000001c0: ca68 88e7 e2a8 d03f e9f4 5f1b e510 e13f
000001d0: a73e f56c 18ce e8bf 6163 b682 1db3 c7bf
000001e0: d874 fe11 2ddc e4bf b661 3f01 e0e1 b6bf
000001f0: 7738 ea54 695c dc3f 5315 032f 0669 f33f
00000200: ceba 5115 9b23 c6bf 3cab 9d3e c34d b03f
00000210: 53a4 8f1c bf87 ddbf d012 c9c8 3909 c2bf
00000220: 5c43 801d 3aa8 793f 4007 ce36 6420 c83f
00000230: 1565 42d3 cd58 c3bf ebcb a5f1 e0d0 7a3f
00000240: 4db4 ce19 2c92 e33f 02b9 7ca9 0f1f 9bbf
00000250: 9779 185a 7832 c83f bbe1 0d33 d938 80bf
00000260: 30d9 57be b426 e0bf b438 abcb 85a1 f8bf
00000270: e299 2403 17f8 b23f 15aa ba88 fb97 a03f
00000280: aaa1 5e9c f05e e53f 8a99 b56a 0d27 efbf
00000290: 9bff 9913 c4ae dbbf 70f7 55e9 1e79 d7bf
000002a0: 4b01 f443 de30 763f b250 ce85 0206 c2bf
000002b0: 10b7 5b38 c729 d33f 6797 ee55 6393 c33f
000002c0: e98b 7c66 00b9 cabf 1d0c a123 c970 8b3f
000002d0: 257e 0630 3b3d ac3f 1584 eff0 367c c53f
000002e0: ec69 dfeb 3c95 c3bf be2f 6360 034a b63f
000002f0: 5960 21f2 e590 f0bf 6fee 6c1a 1679 c93f
00000300: a066 1722 3615 d0bf fc32 76ac 382f d33f
00000310: 3768 546d eff1 edbf 8780 7ba3 f3aa b33f
00000320: c7b3 1827 2ffa d73f 4f1c 589b b0d1 babf
00000330: d1c4 5c5f e8b2 a0bf bfc1 16f4 c78d a9bf
00000340: 768b 432d c821 a3bf a81b a557 5e71 b5bf
00000350: 10df ccbb 9ba5 c7bf f9a0 4404 b63e c5bf
00000360: 7207 0a7c 5310 893f 0731 9f82 58ef b63f
00000370: e6c8 76f7 2d11 f33f f49b 5b2a 3e2b e1bf
00000380: 3f1a 175f 08c4 bcbf 9018 ed0e 9aa7 c0bf
00000390: 5f5f 4056 770c 9bbf 58a2 2e6a e4a3 bfbf
000003a0: 2cd1 9751 efbb bb3f e820 a569 4c05 0240
000003b0: 2f3a f1f5 32fe 98bf 47ce 933b d809 85bf
000003c0: da40 576e 1c50 f93f 425f 1f3e efd4 c43f
000003d0: 566e 0d27 0dab fbbf 4c12 2657 95f1 c23f
000003e0: 5a64 f71e 90ba c43f 3a4f 8a7f 249e d43f
000003f0: 0579 3bf0 37ad aebf ad3e d92d 99cd f33f
00000400: b24e b487 5b6a b3bf 7817 a9e0 34a7 e13f
00000410: af86 547c 1d18 bb3f 4c52 c1cf f6aa f0bf
00000420: 3889 d2aa 2e58 b13f bd19 4e15 9ca0 b93f
00000430: 167d 1413 949f ca3f e5ce 5b60 a35b e3bf
00000440: 0ce8 38b0 5968 b9bf bd7e bc2f 6bbd d73f
00000450: 0960 1ec0 7566 fdbf ee71 943b 41da e9bf
00000460: 1c23 9d05 2e3b babf 836f b6ad 11bd a53f
00000470: 4524 5518 a5c9 c4bf d8dc 26f4 2b6f 943f
00000480: 6421 d8b3 4f20 d23f 713c 8e86 f4a9 ab3f
00000490: 4ade dd16 8ab6 e6bf fbda 8596 001c f4bf
000004a0: 533e d03d ed98 c3bf 0a0d 48e7 dc05 db3f
000004b0: c4ae ad21 abea d9bf 8052 7007 d1f3 c9bf
000004c0: f37f 7a20 c8fd ccbf 3ac3 3438 ba5e b3bf
000004d0: 6cc9 b2f4 3ed7 d83f 1092 2644 0ac1 d2bf
000004e0: e0ed c52e f0ad b13f a4cb e0f0 fd44 ddbf
000004f0: 415b b069 e64d f23f 8d1e 3703 29ec e2bf
00000500: 2a2d 6c04 ddd6 fdbf 6f14 eab3 8cd6 b93f
00000510: fe16 8b37 0328 b6bf 19a2 9258 0923 f03f
00000520: bc64 1297 2d13 fc3f 3310 ca4a 1648 e53f
00000530: 0454 2055 9131 8f3f 2a51 bc9c 787e bebf
00000540: dcd4 e729 e960 fcbf 5397 2dd3 6114 b73f
00000550: 18b5 0142 df01 d6bf 5ada 79a7 7862 c93f
00000560: 2180 2bd0 3180 b5bf 821e b487 c4a2 a4bf
00000570: 5876 6f61 e844 e7bf bd2f 6f83 ae10 b5bf
00000580: e776 5c1e 1e82 d5bf acaf 2bd4 5b19 eebf
00000590: 8d00 db34 367f e3bf 3b1e 159a 7128 b9bf
000005a0: c4c6 657a e156 ee3f 1bce ec4a 3a8d fd3f
000005b0: b502 20e6 d75a aabf 8313 2a7d 2c5b f0bf
000005c0: 6a53 1627 2a6f c03f 29d4 571e f927 e93f
000005d0: 353f befd 5222 e8bf 57bb 0953 d748 d53f
000005e0: a6ea 0916 4f7a d73f 7c23 842f dc4c a5bf
000005f0: ffab 9732 b6d6 e73f b9ce 57d6 9235 d23f
00000600: 51c1 0c7c be86 babf 16f7 b77e 8e33 c4bf
00000610: b57f e092 7c81 ca3f 4541 ea8c c191 bdbf
00000620: ce7a b382 2cb2 cc3f 5581 f60a c295 b83f
00000630: 7fa9 94ae 08cc 883f 31ec aad5 b228 87bf
00000640: 031d e536 0e8b ff3f f70d 47da b504 bdbf
00000650: 89ce a461 7216 bc3f 6f2d 49d5 7a82 db3f
00000660: 95c7 2607 a8e2 7abf 7782 2893 4716 ddbf
00000670: 8e75 9ac6 fad9 bebf 0e62 5c26 67f8 e5bf
00000680: 04fd 1fb1 cf6a b4bf cc09 e672 710b d9bf
00000690: f61c 4ceb 5e51 aa3f efab b05c ec40 c7bf
000006a0: 3b19 b4a1 37cc b73f 52e0 da80 8343 b03f
000006b0: 885b 0a63 2dd0 c7bf 9ad0 40f6 f8ca 0440
000006c0: 7294 9b23 d454 d1bf 3c93 60bc 8cb6 e8bf
000006d0: c036 ee01 c065 cebf 8fb4 ebbc c3f3 d7bf
000006e0: bec7 de56 6424 f6bf 69a3 1ea8 82d7 f6bf
000006f0: 96c5 30f1 d5a5 a53f c7c4 f38f 4fe0 93bf
00000700: 61e2 2451 930a d7bf b43a 4c50 0144 b4bf
00000710: f927 272b f9f3 90bf e2aa 34ae f30b c7bf
00000720: af3f 4c59 8219 da3f 9069 40fd 3e8b c83f
00000730: 79a9 5d24 e229 cc3f be9e 2a14 60bc c4bf
00000740: c5af 27d7 de5c f83f f04a 8901 10a5 fcbf
00000750: 0963 f330 acf7 d2bf f52b e838 9475 aabf
00000760: b2fb 852e a865 c3bf f82b e4a2 526b d0bf
00000770: 8416 e29b 77b4 bfbf 7d74 1fdb 3fa0 cd3f
00000780: 61c2 9414 e953 dbbf 1b78 216f b771 cfbf
00000790: a09b 5ea2 a6af e1bf 6f6c 8239 3515 d9bf
000007a0: 2e67 538b 5104 e4bf 3b00 06c0 3cfa e1bf
000007b0: b058 c391 8c2a f0bf c12b f8b7 5bdc e4bf
000007c0: c27f 727b a1b9 ba3f ab9b 1df4 1c54 abbf
000007d0: 0691 1af1 0325 e2bf 2aa2 5d5c 88c7 f23f
000007e0: c39b 8e25 5310 d1bf 3c15 8526 f9f2 c53f
000007f0: 2b6a 9ece 2d7a e3bf 7602 ca25 cf53 f63f
-0.2463992131712887 -0.209111844880402 -0.11073831863746736 -0.5487592693831815 -0.03734559406246521 1.3587209557383437 0.2585224867674789 -1.859239297355825
0.26824130708267635 -0.34104572034347236 0.1677108134405084 -0.27120980799538214 0.17284761896744086 -3.1673057538043605 -1.6971451500232033 -1.0163451794595504
-2.2676447792936703 0.3458130418717556 -1.0800827016451287 0.3592970814445232 0.03128361500641101 -0.6564913203282401 0.12542734568027944 -0.10324852704264145
-0.25579332578936287 -0.11171675031921563 -0.17852622666493895 0.021388021471041022 1.4934380718192284 0.19732263715432133 0.7185103448859627 0.1062107124424021
-0.7148352404762578 -0.6048119625778157 1.1017036382174759 -0.1871650967921007 0.02349848319659641 0.10982237866346686 0.07123572641944761 0.2554114698783593
0.21021712584255092 -0.20041297102600936 -1.4239740161662198 -0.22982276895418882 -0.20241952667138047 -0.6972230465890218 2.646719796281263 -0.10519216305461182
0.028795118426050054 -0.12204279235263409 -0.2575089883835177 0.21752346006930778 0.42462139220343276 -0.05372636069125386 1.9168348826083017 -0.03805228518389862
0.26030800448064595 0.5333123716988243 -0.7751581314168633 -0.18515366442150152 -0.6518769599385008 -0.08938407926996814 0.4431403474089914 1.2131406628044104
-0.17296160260180787 0.06368656424244262 -0.46141031064195664 -0.1409065466306374 0.006263949406290017 0.18848850894942792 -0.15114758315466106 0.0065468584892753685
0.6115932945300614 -0.026485676498105633 0.18904022597503164 -0.007920929785300559 -0.5047248571052361 -1.5394342380346133 0.07409805132611028 0.032409534874506964
0.6678393415541468 -0.9735171398322546 -0.43254186548437595 -0.36676762377452743 0.00541769812048216 -0.1408084061955655 0.29942493919121294 0.1529354257192452
-0.2087707996771251 0.013398715400518008 0.055154656994315134 0.16785322918352166 -0.15299188153478782 0.0870668516465107 -1.0353755434243992 0.19900776186283362
-0.2512946446346209 0.29975716440166855 -0.9357831130357742 0.0768272661330248 0.37464503114716446 -0.10476211350042884 -0.03261495746699839 -0.04990982870674853
-0.037367110753414076 -0.08376111640710227 -0.1847414652818249 -0.16597628792192845 0.012238170836329696 0.08958962620744525 1.1916942278444878 -0.5365286662389495
-0.11236622163333097 -0.13011480072799886 -0.026414742125865028 -0.12359454719865803 0.10833640806214778 2.2525871518629295 -0.0244071924792541 -0.010272683447033816
1.5820583639324952 0.16274824651076797 -1.7292605901228817 0.14799753909405167 0.16194345008878736 0.3221522565374816 -0.05991530234835988 1.237694911094802
-0.07584163725942508 0.5516609561825438 0.10583671842007435 -1.0417392840801254 0.06775180502385048 0.1001069595350605 0.20799494678156155 -0.6049363023762139
-0.09924850990583439 0.37093619977711595 -1.8375146393427733 -0.8078924335164268 -0.10246551167541579 0.04245810742869962 -0.16240371406664358 0.01995533635792132
0.2832221275607678 0.05403103010677846 -0.7097826429953298 -1.256836498241397 -0.1531044532607547 0.42223284326628685 -0.40494802750502523 -0.20275318968983314
-0.2264948042475222 -0.07566417572230658 0.3881375684387851 -0.29303223281229496 0.06906033651278376 -0.45733593486073176 1.144018566939579 -0.5913281500624678
-1.864956872249261 0.10093001739922312 -0.08654804330862118 1.0085538349031877 1.754682150005734 0.6650496922234254 0.015231261644695245 -0.11911729647210181
-1.773659862226217 0.0901547566005239 -0.34386426397289105 0.19831760575808027 -0.08398734409593135 -0.04030431896722765 -0.7271615889582774 -0.08228579243512875
-0.33606675114593404 -0.9405955451925272 -0.6092787773450411 -0.09827337276248553 0.9481055632188249 1.8469794203528014 -0.0514743297972066 -1.0222592248184987
0.1283924761634368 0.7861295311582853 -0.7541899639054238 0.3325708685796846 0.36684014465542203 -0.0416020210269101 0.7449599254736085 0.28451987201627166
-0.10361853149948287 -0.15782338321144412 0.20707661792493828 -0.1155053109198479 0.22418743497742927 0.09603512542390054 0.012107913806705948 -0.011308095117206292
1.9714491028151435 -0.1133531244186584 0.10971751102334272 0.4298388560170769 -0.006563812598345727 -0.45448483820840785 -0.12051360462870361 -0.6865726231799856
-0.07975481104221066 -0.39132343502583633 0.051402059767548566 -0.1816688015545362 0.09295985887374496 0.06353017707704225 -0.1860405667873375 2.5991076696901247
-0.2708025310260559 -0.7722839049571131 -0.23748016447318854 -0.37425321053780974 -1.3838847535484855 -1.4276148383307492 0.042280851070596245 -0.0194103652583564
-0.36002047466494075 -0.07916267595667642 -0.01655568433651664 -0.18005224233760148 0.40780695648663373 0.19174945226479823 0.22002817893674 -0.1619987581700481
1.5226734547131724 -1.7902984676372249 -0.2963667371782753 -0.05167830652870712 -0.15153982421540274 -0.2565504637465774 -0.12384746127835383 0.23145292472228
-0.4269964886653153 -0.24565785337739574 -0.552691762092639 -0.3919194280258073 -0.6255271645743272 -0.5617965460260231 -1.010387963664055 -0.6518992036011398
0.10439500106667679 -0.053376107024454576 -0.5670184811647523 1.1737140281712848 -0.2666213862198072 0.17147745495655353 -0.6086644206546387 1.395461223233864
